used_py/models/M1.pth (torch, 3713 bytes, 4 tensors)

model.0.weight f4 [10, 25]
0	0x410eef09	8.933358
1	0xc0820b5c	-4.0638866
2	0x416f3d6c	14.952496
3	0xc094e0b7	-4.652431
4	0x41a58c61	20.693544
5	0xbda603a1	-0.08106161
6	0x420a5c3c	34.590073
7	0x4252f099	52.73496
8	0xc0dbe32d	-6.8714814
9	0xc023ccc7	-2.5593736
10	0x404d9f0b	3.2128322
11	0xc23e3a76	-47.55709
12	0xc0c9e624	-6.3093433
13	0x417289c6	15.158636
14	0xc2106461	-36.098026
15	0xbffb6a20	-1.9641762
16	0xc313894c	-147.53632
17	0x42124b8d	36.57378
18	0xc261e2f3	-56.47163
19	0x3f175cb1	0.5912581
20	0x3fe6d79d	1.803455
21	0x41b42886	22.519787
22	0xc2199d0a	-38.40336
23	0x3fd17d86	1.6366432
24	0x41fd1848	31.636856
25	0x422f0cb2	43.762398
26	0xc156a895	-13.416158
27	0xc13fe90f	-11.994399
28	0xc0ffdc73	-7.9956603
29	0x40b632a0	5.69368
30	0xc0e92dce	-7.2868414
31	0x407b1188	3.922945
32	0x401b74da	2.429007
33	0xc0cd748c	-6.420477
34	0x41031559	8.192712
35	0xbd213646	-0.0393584
36	0x4108b51c	8.544216
37	0xc17d7d56	-15.8431
38	0xbfb1b1fa	-1.3882439
39	0xc0738231	-3.8048213
40	0xc186951c	-16.822807
41	0x42d3b8e1	105.86109
42	0x409c004e	4.875037
43	0xc213459c	-36.817978
44	0x40335821	2.802254
45	0xc27bd225	-62.95522
46	0x420908ba	34.258522
47	0xc1e73a10	-28.90335
48	0xc0699b6c	-3.6501112
49	0xc0cc0fb2	-6.376916
50	0x41a122ad	20.141932
51	0xc14263d9	-12.149377
52	0xc16824a3	-14.5089445
53	0xc109b9a0	-8.607819
54	0xc1551b05	-13.319097
55	0xc0c3ae08	-6.114994
56	0x40e2615c	7.0743847
57	0x3fc85b92	1.5652945
58	0xc0b7d051	-5.7441792
59	0xc1042b0f	-8.260512
60	0xc13e8f5a	-11.909998
61	0x403ffff5	2.9999974
62	0xc1174601	-9.454591
63	0x3eed31df	0.4632711
64	0xc1727b77	-15.155143
65	0x4113013a	9.187799
66	0x429c5f19	78.18574
67	0xc0b701c1	-5.718964
68	0x41fe9c6e	31.826382
69	0xc138159f	-11.505279
70	0x40d4c1e0	6.6486664
71	0x420c3893	35.05525
72	0xc09e50cb	-4.9473624
73	0xc08115e8	-4.033924
74	0x409b69e1	4.8566747
75	0x4214ebf5	37.230427
76	0x409ed9b9	4.9640775
77	0xc0745e88	-3.8182697
78	0xc06b961c	-3.681037
79	0x3ea52754	0.32256567
80	0xc09de79c	-4.9345226
81	0x406b46b3	3.6761901
82	0xc08bb8a5	-4.3662896
83	0x3f486213	0.7827465
84	0x411646f1	9.39232
85	0xbfc4c729	-1.5373279
86	0x40a4c9c8	5.1496315
87	0xbf18cb4f	-0.59685224
88	0xc1042f78	-8.261589
89	0xc19dfea8	-19.749344
90	0xc1ad3638	-21.651474
91	0xc167d67b	-14.489863
92	0x406e744a	3.7258477
93	0xc24a3db3	-50.560253
94	0x41edfc86	29.748302
95	0xc0a5a33d	-5.1761765
96	0x40ba30c8	5.8184547
97	0x41b5f328	22.743729
98	0x41874ba7	16.91194
99	0x4053109e	3.2978892
100	0x4145dfee	12.36717
101	0x4082d1f0	4.088127
102	0x418a1bd7	17.263594
103	0x410eb5f8	8.919426
104	0x41a7d111	20.977083
105	0x409eda30	4.964134
106	0x418fc9cf	17.97354
107	0x4161102d	14.066449
108	0xbfd338e2	-1.6501734
109	0x40f32381	7.598084
110	0x4159c280	13.609985
111	0xc1826d6e	-16.303432
112	0x40619137	3.5244882
113	0x4158d596	13.552145
114	0xc212ee6f	-36.732845
115	0xc19b9902	-19.44971
116	0xc29ecd5e	-79.40111
117	0xc2005b4b	-32.089153
118	0xc112a11f	-9.164336
119	0xc12a42d8	-10.641319
120	0xc2070d6f	-33.76312
121	0xc01d28f5	-2.4556248
122	0xc2807551	-64.22913
123	0xc19ef9ff	-19.872068
124	0xc119ba6e	-9.608015
125	0x3fa3e64b	1.2804655
126	0x3ef61d9b	0.48069462
127	0x406ebb63	3.7301872
128	0x401faaf2	2.4948087
129	0x41a230df	20.273863
130	0x40712fa8	3.7685337
131	0x42175026	37.82827
132	0x406d3d11	3.7068522
133	0x4201d0a1	32.45374
134	0xc06478b8	-3.569868
135	0xbe0071b4	-0.12543374
136	0x4215790e	37.368217
137	0x407e872f	3.977001
138	0x41c5710d	24.6802
139	0x4104c46f	8.297957
140	0x4239c233	46.439648
141	0xc237bde1	-45.93543
142	0x41d062a4	26.048164
143	0xc24f5e06	-51.84182
144	0xc17a5a53	-15.647052
145	0xc1a6c275	-20.84495
146	0xc1093a61	-8.576753
147	0xc0f00165	-7.50017
148	0xc13e081b	-11.876979
149	0xbfec8a0e	-1.8479631
150	0x41baf36c	23.368858
151	0x40b50507	5.6568637
152	0x411e15be	9.880308
153	0x409343b2	4.6020136
154	0x411090b0	9.035324
155	0x3fb5a0ce	1.4189699
156	0xc1e98573	-29.19016
157	0xc205cf6f	-33.45257
158	0xc0bc5b11	-5.8861165
159	0xc02eba55	-2.7301228
160	0x4114b234	9.293507
161	0xc0912ff6	-4.5371046
162	0xc0116445	-2.271745
163	0xc169eb66	-14.61997
164	0xc033f88e	-2.8120456
165	0xc1440fcc	-12.253857
166	0xc284d357	-66.41277
167	0xc126c64a	-10.42341
168	0x417e30b6	15.886892
169	0xbffc6989	-1.9719707
170	0x4042c542	3.0432897
171	0xc1f9526c	-31.165245
172	0xc0b65e5f	-5.69902
173	0xbfe3d83b	-1.7800363
174	0xc1288e92	-10.534807
175	0x40dc125a	6.87724
176	0xc181e5af	-16.23715
177	0xc14e9fe1	-12.914033
178	0xc12f1a42	-10.943911
179	0xc13772d9	-11.465539
180	0xc128d2ec	-10.551495
181	0xc1f6fc4e	-30.873196
182	0xc1828e41	-16.31946
183	0xc12189db	-10.096156
184	0xc1574dc7	-13.456489
185	0xc15ee415	-13.930684
186	0x417ec78a	15.923716
187	0xc11fcb91	-9.987199
188	0xc111d377	-9.114127
189	0x4222a71b	40.66319
190	0x419b51d2	19.414951
191	0x42a82178	84.06537
192	0x428fd9cd	71.92539
193	0x41e4f64e	28.620266
194	0x40a5fa30	5.1867905
195	0x3f49a925	0.7877372
196	0x424959f1	50.337833
197	0xc0f39195	-7.6115212
198	0xc038a65d	-2.885154
199	0x3e070678	0.13186061
200	0x3f28fd19	0.66011196
201	0x412cdca2	10.803865
202	0x41818132	16.188084
203	0x40947fe8	4.6406136
204	0x41a773a6	20.931469
205	0x3fa03934	1.2517457
206	0x410b18c6	8.693548
207	0xc1c2f40e	-24.369167
208	0x41571bbd	13.444272
209	0x40849ca9	4.1441236
210	0x40c1ec54	6.0600986
211	0x42062787	33.5386
212	0x41454b82	12.330935
213	0xbfa3157d	-1.2740933
214	0x42331dc9	44.779087
215	0x3f98bea7	1.1933182
216	0xc2f2c4d0	-121.3844
217	0xc27bd729	-62.960117
218	0xc200a498	-32.160736
219	0x41dea9da	27.832935
220	0xc1251813	-10.3183775
221	0xc09e53cb	-4.9477286
222	0x42968268	75.2547
223	0xc01ca879	-2.4477828
224	0xbda97061	-0.08273388
225	0x413ae3b7	11.680594
226	0xc101ec30	-8.120163
227	0xc10adabf	-8.678405
228	0xc100da8c	-8.053356
229	0x3fa8be7f	1.3183135
230	0xbff087e6	-1.8791473
231	0xc0637b95	-3.5544178
232	0x4191ac18	18.20903
233	0xc18ffb20	-17.99762
234	0xc094fea1	-4.6560826
235	0xc0a22562	-5.0670633
236	0xc1afda6c	-21.981651
237	0xc05a8a35	-3.4146855
238	0xc1108b38	-9.033989
239	0xc226321e	-41.548943
240	0xc19193df	-18.197203
241	0x41cd1b6c	25.63839
242	0xc195a4e4	-18.705513
243	0x41d2ae3c	26.335075
244	0xc1803817	-16.027388
245	0xc14d3762	-12.826021
246	0x41a0a184	20.078865
247	0x41b2dddd	22.358332
248	0xbfe749bc	-1.8069377
249	0x41815732	16.167576

model.0.bias f4 [10]
0	0x411a9270	9.660751
1	0xc0ea371e	-7.319228
2	0xc1a123b7	-20.142439
3	0xc0f4854a	-7.6412706
4	0x3ff6d211	1.9282857
5	0xc00e9f68	-2.2284794
6	0xbfb705c7	-1.4298638
7	0xc196e118	-18.85991
8	0x41214c97	10.081199
9	0xc17c06c7	-15.751655

model.2.weight f4 [25, 10]
0	0xc14f7d56	-12.9681
1	0xc19ed01a	-19.851612
2	0x410d9b9f	8.850493
3	0x421a2be1	38.54285
4	0x419d1d14	19.639198
5	0x41835659	16.417162
6	0x40a864d6	5.262309
7	0x40844d4b	4.134435
8	0xc11bbb6a	-9.733255
9	0x4106ef49	8.433419
10	0xbe60c9e4	-0.21952015
11	0xbf51a0b2	-0.81885827
12	0xc02001ad	-2.5001023
13	0xbed57e32	-0.41697842
14	0xbe2acf50	-0.16680646
15	0x3da2b8a3	0.07945373
16	0xc04ff84e	-3.2495303
17	0x3f40939c	0.75225234
18	0xbda68a06	-0.08131795
19	0x3ece42a1	0.4028521
20	0x3e515348	0.20441926
21	0xbfdc59c6	-1.7214897
22	0xc145d601	-12.364747
23	0xc16cf6e3	-14.810275
24	0xbd512e16	-0.05106934
25	0xbff8133d	-1.9380871
26	0xc14ca401	-12.79004
27	0x3f8dc625	1.1076094
28	0x3f919c7f	1.1375884
29	0x3e4a76ed	0.19771929
30	0xbea7ac5c	-0.32748687
31	0xbfbb3c2c	-1.4627738
32	0xc1074017	-8.453147
33	0xc1094bc1	-8.580995
34	0x4010c75f	2.2621686
35	0xbfbd4799	-1.4787475
36	0xc0e05cdb	-7.011335
37	0xbc8eccee	-0.017431702
38	0x3ff563f3	1.9171127
39	0x40084fcc	2.1298704
40	0xbf49b41d	-0.78790456
41	0xbf14b538	-0.5808902
42	0xc11085d2	-9.032671
43	0xc10fed8c	-8.995495
44	0xbfb26662	-1.3937495
45	0xbf8e1939	-1.1101447
46	0xc10e3669	-8.888284
47	0x3f80a2e7	1.0049714
48	0x3fd46132	1.6592162
49	0x3fb9e8ac	1.4524131
50	0xbf737f57	-0.9511618
51	0xbf4a7050	-0.79077625
52	0x401401ae	2.3126025
53	0x406a05ae	3.6565967
54	0x3fa60f53	1.2973427
55	0xc0075aff	-2.114929
56	0xbe38f5c3	-0.180625
57	0x3fbbc851	1.4670507
58	0xc03ccb6c	-2.949916
59	0xc0e3df91	-7.121041
60	0x3dd82786	0.105544135
61	0xbf070948	-0.5274854
62	0x3fbfb8c6	1.4978263
63	0x3f8c17dd	1.0944782
64	0x3f21778d	0.63073045
65	0x3eca3976	0.39496964
66	0x3f92b3a4	1.1461072
67	0xbef6ab90	-0.48177767
68	0xbf7d6b0b	-0.9899146
69	0xbd8ae781	-0.06782437
70	0xbd3c7723	-0.046012055
71	0x3f0ad719	0.5423446
72	0xbfdb0cc7	-1.7113274
73	0xbf1ed61a	-0.62045443
74	0xbfa4164a	-1.2819302
75	0xbf02aa8a	-0.5104147
76	0xbf92b22d	-1.1460625
77	0x3ee1331f	0.43984315
78	0x3f772b20	0.9655018
79	0xbe07de93	-0.13268499
80	0x3e06900d	0.13140889
81	0x3e2432b3	0.16034965
82	0x3f7d71d5	0.9900182
83	0x3eded754	0.43523657
84	0x3efe2d7e	0.49644083
85	0x3e249f38	0.16076362
86	0x3f74ab08	0.9557347
87	0x3d97ec4f	0.07418119
88	0xbf24d5e0	-0.6438885
89	0xbed30b80	-0.4121971
90	0xc049d021	-3.1533282
91	0xc0f34889	-7.6026044
92	0x417e3870	15.888779
93	0x41b24737	22.284773
94	0x4157554c	13.458324
95	0x3f993af8	1.1971121
96	0x4082f3a8	4.092243
97	0xbfe58209	-1.7930309
98	0xbf803791	-1.0016958
99	0xc0c2ff42	-6.0936594
100	0xbfb3f788	-1.4059916
101	0xc087b2fe	-4.2405996
102	0x41619462	14.098726
103	0x4187f2c7	16.993544
104	0x41313596	11.0755825
105	0x4072f199	3.795996
106	0x41115d68	9.085304
107	0xc01f88d5	-2.4927266
108	0xbe8365c3	-0.25663576
109	0xc039db57	-2.9040124
110	0xbe93c919	-0.28864363
111	0xbe8df766	-0.27727813
112	0xbc22fc36	-0.009947827
113	0x3f3d8c6e	0.74042404
114	0x3dfb4406	0.12268834
115	0x3dd459eb	0.10368713
116	0xbf09a535	-0.5376771
117	0x3daeb136	0.08529894
118	0x3dc68fbb	0.09695383
119	0x3de3ac84	0.11116889
120	0xc1849478	-16.572495
121	0xc0e75a7f	-7.229797
122	0x3ccc0f90	0.024909765
123	0xc098dbc6	-4.776828
124	0xc080af21	-4.021378
125	0xc08a0888	-4.3135414
126	0xc14878d0	-12.529495
127	0xc0849063	-4.1426253
128	0xc089c716	-4.3055525
129	0xc129d038	-10.613335
130	0x3defba2d	0.11705432
131	0xbe45bfe7	-0.19311486
132	0xbe1dcad5	-0.15409406
133	0xbe16f27d	-0.1474094
134	0xbecbbde6	-0.3979332
135	0x3dea401d	0.1143801
136	0xbe3761a8	-0.17908347
137	0xbeae7f0e	-0.3408131
138	0x3e5f293a	0.2179307
139	0x3e8a5d25	0.2702419
140	0x410e00b7	8.8751745
141	0x408e310d	4.4434876
142	0x4022b6d2	2.5424085
143	0x406bd53d	3.68489
144	0x3fcd3d3d	1.6034313
145	0x40bd7159	5.9200864
146	0x4128b99f	10.545318
147	0x4069fa50	3.6559029
148	0x40d0268c	6.5047054
149	0x40c403e4	6.125475
150	0x403c9000	2.946289
151	0x40c30dda	6.095441
152	0xc0ef0700	-7.4696045
153	0xc1a548fc	-20.660637
154	0xc1972e99	-18.897753
155	0xc00868d0	-2.1313972
156	0x3fe5da0c	1.7957168
157	0x4073399a	3.8003907
158	0xbf400d87	-0.7502064
159	0xc04e7de8	-3.2264347
160	0xbd5dc052	-0.05413849
161	0x3f5c3389	0.86016136
162	0xbfceb755	-1.6149698
163	0xbf38bd79	-0.7216411
164	0xbf876afc	-1.0579524
165	0xbe85fee2	-0.26171023
166	0xbf22c66e	-0.6358403
167	0x3e52e991	0.20596911
168	0x3f39aa53	0.7252552
169	0x3e00b728	0.12569869
170	0x3e734726	0.2375761
171	0x4015c6a9	2.3402503
172	0xc10ea585	-8.91541
173	0xc1146c62	-9.276461
174	0xc082c270	-4.086235
175	0xbf9ee4e9	-1.2413608
176	0xc01c3b9a	-2.4411378
177	0x40872e21	4.224381
178	0x4002358d	2.0345185
179	0x408024dd	4.0045
180	0x3e109f9b	0.14123385
181	0x3f0c3a5a	0.5477654
182	0xbf819bca	-1.0125668
183	0xbf90098c	-1.1252913
184	0xbf567888	-0.83777666
185	0xbee3d848	-0.44500947
186	0xbe90a194	-0.28248274
187	0x3e9ee6da	0.310355
188	0x3f76be7b	0.963844
189	0x3e4dfb45	0.20115383
190	0xbf726164	-0.94679856
191	0xbfb6b8a6	-1.42751
192	0x40bdb716	5.9285994
193	0x40d4d451	6.6509175
194	0xbfbef308	-1.4917917
195	0x4011416f	2.2696187
196	0x40d18b03	6.548219
197	0xbd7208ce	-0.059090428
198	0xbe6236d8	-0.22091234
199	0x407b184c	3.923358
200	0xbea35024	-0.3189708
201	0xbea66b91	-0.32503942
202	0x4013355e	2.3001323
203	0x3f66942d	0.9006985
204	0x3ffb30e7	1.9624299
205	0x3f1354ad	0.5755108
206	0x3f9531ac	1.1655784
207	0xbe84374b	-0.25823435
208	0xbfa4e33b	-1.2881845
209	0xbe8c0ca8	-0.27353406
210	0xbfa50533	-1.2892212
211	0xbfd60b96	-1.6722286
212	0xc0730cbf	-3.797653
213	0x3f8e6679	1.1125022
214	0xc00e106e	-2.2197528
215	0x3f921a99	1.1414367
216	0xc042cf4a	-3.043902
217	0x3f03b855	0.51453143
218	0x3d88ea43	0.06685307
219	0x402b711b	2.6787784
220	0xbeb768f9	-0.35822275
221	0x3e9f5496	0.3111922
222	0xc05a5dee	-3.411983
223	0xbf42e00c	-0.7612312
224	0xc09705e3	-4.7194686
225	0x3f5c1224	0.8596518
226	0xc0f12c26	-7.536639
227	0x3f622d5d	0.8835047
228	0xc00ab52e	-2.1673083
229	0x410a988a	8.662241
230	0x3ea6d7c7	0.325865
231	0xbe031aad	-0.12803145
232	0xbf03b2f5	-0.5144494
233	0xbf458c7b	-0.7716748
234	0xbe79dd0a	-0.24400726
235	0x3e1caf82	0.15301326
236	0xbeac1654	-0.33610785
237	0xbc3c2f06	-0.011485821
238	0xbe8cbae0	-0.27486324
239	0x3f03a710	0.5142679
240	0xbe3573d5	-0.17719968
241	0x3f01a844	0.5064738
242	0xc051b1df	-3.2764814
243	0x3df14ced	0.117822506
244	0xbe875e40	-0.26439095
245	0x3e9d67d8	0.3074329
246	0xc0215150	-2.520588
247	0x3e1d89bd	0.15384574
248	0x3f455b3b	0.7709233
249	0x3f8a663d	1.0812451

model.2.bias f4 [25]
0	0x3f3b86c6	0.7325252
1	0x401c70e2	2.4443898
2	0x3f9777d2	1.1833441
3	0x3ff17f65	1.8867003
4	0x401b83f5	2.429929
5	0x3fc05d5b	1.502849
6	0xbf9446ce	-1.1584108
7	0xbf7bed94	-0.9840939
8	0xbf156060	-0.5835018
9	0x40216582	2.5218205
10	0x40a15aea	5.042348
11	0xbec4711f	-0.38367555
12	0x415357f3	13.208972
13	0x3d7cdab6	0.061732017
14	0xc180251a	-16.018116
15	0xc0943fc6	-4.632785
16	0x3f1aae11	0.60421854
17	0xc028b0a6	-2.6357818
18	0x3f9a1676	1.2038105
19	0xc02bfab6	-2.6871772
20	0x3f8e7997	1.1130856
21	0xc071c62c	-3.7777205
22	0xbfde076a	-1.7346013
23	0x402dd426	2.7160735
24	0xc00f4811	-2.2387736
