used_py/models/M2.pth (torch, 3713 bytes, 4 tensors)

model.0.weight f4 [10, 25]
-1.3189307 -9.91586 12.551631 -10.813453 17.140709 11.4793 14.683847 20.603872
-5.603741 -22.570343 1.6709775 -15.557224 -3.2597296 22.691713 -30.306955 -18.356413
25.693237 6.1298614 -63.776836 -32.29508 -44.969616 11.034273 -38.360397 15.184819
21.753355 22.66516 0.8008527 -3.2502003 -0.26339957 -3.7932208 -10.131191 -2.2240436
-7.8808913 -5.9049087 1.2649645 -2.1363811 -12.841574 -3.0984004 -4.2411 -52.138317
-32.414795 -2.3428526 -7.104612 14.381148 8.953492 17.284163 8.421744 -15.08219
-3.706807 13.300009 -20.50527 4.2026896 -0.49313232 -0.75895745 -1.9376795 -5.512232
-4.4515753 7.955852 -3.3139625 -7.9443145 4.0471144 -2.6904907 -0.5012199 4.0806985
13.500592 46.568474 -11.658776 -8.689737 28.230078 -13.815284 3.9795275 -2.7997196
-1.9490745 10.026301 3.7371573 32.25403 2.241534 25.211964 8.61766 27.36333
40.909206 25.825272 24.471066 7.349223 9.929587 -3.2461298 -9.686377 2.2785485
17.303514 0.63909316 -23.48017 -122.87485 20.181013 -74.520706 -3.1801865 -42.348686
10.708359 -33.146965 -12.718971 17.470451 4.524216 -3.7788413 3.0396051 -2.7329733
8.952484 -3.2453194 0.39987656 -10.866451 1.4765135 -3.0248919 -5.296876 12.186041
-2.9118407 -3.7232122 -1.0078726 35.90189 -23.139578 -30.216055 18.466356 2.701965
12.439058 -21.894003 5.961379 7.024342 -0.9086496 7.095623 -3.8297827 -5.5229893
-8.185985 0.30202118 -4.516167 0.6951583 -2.197715 1.4832411 -7.7873826 -10.047427
5.2156262 -5.048836 -1.698518 -39.21515 -22.696663 44.02826 8.57559 10.396716
-17.602701 15.33265 0.73189455 -16.507051 -5.5818434 -11.758592 -9.707152 -4.9111485
-1.6288902 -2.0151958 -8.198374 4.047806 7.443587 -6.0735655 6.5204887 4.5504885
-6.554944 8.126352 -3.619151 1.0271163 18.8064 -25.82789 -24.42389 -42.12737
36.452274 -18.80203 25.364746 -12.012558 -23.884975 -14.044817 -14.541906 44.468384
-4.9047046 -18.542877 -5.1779566 -25.493755 -7.7647448 -3.296861 -4.9528036 5.5485697
-4.7832427 -7.8128443 14.6778345 3.3858526 0.5020434 -27.376047 39.925987 91.39074
-1.1259822 -24.566868 -1.7598772 -27.246706 -16.424213 29.822905 -0.93394697 -27.65351
-18.259636 1.8993242 6.323231 4.9625015 7.0570188 6.388687 3.6485307 -0.46262625
3.6107388 2.0245054 14.805993 -8.997603 6.6452117 6.9786973 -14.278777 -20.88574
-24.97652 -53.476444 -33.71298 9.356579 -22.08886 -3.859532 -10.679211 11.2385235
6.97747 -29.256596 -6.5342007 -1.2929741 -5.60401 -21.883223 6.3529725 -5.3848767
-8.768382 10.137903 -12.303721 2.0659313 28.02282 -3.0740025 -0.4230205 38.994503
37.98666 -55.81934 38.454033 52.43302 56.76777 7.4500556 -4.495813 46.976067
-3.3789692 23.298428
00000000: b9d2 a8bf 5da7 1ec1 7bd3 4841 e703 2dc1
00000010: 2c20 8941 36ab 3741 0af1 6a41 bbd4 a441
00000020: d951 b3c0 1090 b4c1 97e2 d53f 64ea 78c1
00000030: 699f 50c0 a188 b541 a574 f2c1 efd9 92c1
00000040: c08b cd41 d327 c440 7b1b 7fc2 292e 01c2
00000050: e3e0 33c2 628c 3041 0c71 19c2 05f5 7241
00000060: df06 ae41 3f52 b541 af04 4d3f 4803 50c0
00000070: 4fdc 86be 21c4 72c0 5c19 22c1 bb56 0ec0
00000080: 4330 fcc0 03f5 bcc0 5bea a13f 78ba 08c0
00000090: 1677 4dc1 314c 46c0 17b7 87c0 a38d 50c2
000000a0: c0a8 01c2 4cf1 15c0 fb58 e3c0 2f19 6641
000000b0: 8141 0f41 f745 8a41 77bf 0641 a650 71c1
000000c0: 533c 6dc0 d6cc 5441 cb0a a4c1 6f7c 8640
000000d0: d77b fcbe 094b 42bf e205 f8bf 3464 b0c0
000000e0: 4e73 8ec0 5796 fe40 f617 54c0 d337 fec0
000000f0: f681 8140 0031 2cc0 f34f 00bf 1595 8240
00000100: 6d02 5841 1e46 3a42 598a 3ac1 2a09 0bc1
00000110: 33d7 e141 670b 5dc1 94b0 7e40 9b2e 33c0
00000120: 467b f9bf bb6b 2041 962d 6f40 2004 0142
00000130: 4b75 0f40 1ab2 c941 efe1 0941 1ae8 da41
00000140: 07a3 2342 289a ce41 bec4 c341 d62c eb40
00000150: 97df 1e41 97c0 4fc0 66fb 1ac1 bdd3 1140
00000160: 996d 8a41 9c9b 233f 63d7 bbc1 ecbf f5c2
00000170: b772 a141 9a0a 95c2 2d88 4bc0 0e65 29c2
00000180: 7055 2b41 7e96 04c2 e880 4bc1 7cc3 8b41
00000190: 61c6 9040 89d8 71c0 e488 4240 09e9 2ec0
000001a0: 603d 0f41 50b3 4fc0 9fbc cc3e fcdc 2dc1
000001b0: 65fe bc3f d497 41c0 0280 a9c0 06fa 4241
000001c0: 995b 3ac0 1c49 6ec0 f801 81bf 899b 0f42
000001d0: db1d b9c1 7bba f1c1 19bb 9341 ffec 2c40
000001e0: 6206 4741 eb26 afc1 9ec3 be40 69c7 e040
000001f0: 439d 68bf 580f e340 291b 75c0 54bc b0c0
00000200: cbf9 02c1 85a2 9a3e 7184 90c0 e5f5 313f
00000210: 5da7 0cc0 d8da bd3f 3d32 f9c0 43c2 20c1
00000220: 69e6 a640 1190 a1c0 0a69 d9bf 50dc 1cc2
00000230: c492 b5c1 f01c 3042 9e35 0941 f358 2641
00000240: 55d2 8cc1 8952 7541 715d 3b3f 710e 84c1
00000250: 769e b2c0 3123 3cc1 7f50 1bc1 2128 9dc0
00000260: 797f d0bf f8f8 00c0 8a2c 03c1 a087 8140
00000270: dd31 ee40 a65a c2c0 d8a7 d040 9a9d 9140
00000280: 1ac2 d1c0 8a05 0241 2ca0 67c0 8c78 833f
00000290: 8273 9641 859f cec1 2064 c3c1 6d82 28c2
000002a0: 21cf 1142 8f6a 96c1 00eb ca41 7033 40c1
000002b0: 6e14 bfc1 92b7 60c1 a6ab 68c1 a0df 3142
000002c0: 57f3 9cc0 d057 94c1 d2b1 a5c0 36f3 cbc1
000002d0: ca78 f8c0 c5ff 52c0 5e7d 9ec0 e28d b140
000002e0: 5310 99c0 d202 fac0 69d8 6a41 cfb1 5840
000002f0: eb85 003f 2502 dbc1 36b4 1f42 0fc8 b642
00000300: 2f20 90bf f288 c4c1 a843 e1bf 41f9 d9c1
00000310: ca64 83c1 4f95 ee41 2617 6fbf 633a ddc1
00000320: bc13 92c1 0e1d f33f e957 ca40 d0cc 9e40
00000330: 19d3 e140 2070 cc40 8781 6940 59dd ecbe
00000340: 5816 6740 7f91 0140 59e5 6c41 2ff6 0fc1
00000350: 93a5 d440 7d51 df40 df75 64c1 ff15 a7c1
00000360: eacf c7c1 e1e7 55c2 17da 06c2 8cb4 1541
00000370: fcb5 b0c1 9302 77c0 0cde 2ac1 fed0 3341
00000380: 6f47 df40 820d eac1 2c18 d1c0 2d80 a5bf
00000390: 0d54 b3c0 d710 afc1 8d4b cb40 e950 acc0
000003a0: 4b4b 0cc1 da34 2241 0bdc 44c1 3838 0440
000003b0: bc2e e041 75bc 44c0 2596 d8be 5ffa 1b42
000003c0: 57f2 1742 0147 5fc2 eed0 1942 6abb 5142
000003d0: 3212 6342 db66 ee40 b3dd 8fc0 7ee7 3b42
000003e0: 0841 58c0 2e63 ba41

model.0.bias f4 [10]
5.8155966 -12.328278 -4.7226853 -3.6584744 -12.5511875 -11.6535225 -2.8756256 -8.644442
5.936221 -15.42396
00000000: 5e19 ba40 a040 45c1 3d20 97c0 7224 6ac0
00000010: aad1 48c1 d474 3ac1 400a 38c0 a24f 0ac1
00000020: 86f5 bd40 8ac8 76c1

model.2.weight f4 [25, 10]
-24.125711 13.740463 31.678051 24.735428 -0.6322219 60.082672 -7.0968285 18.993006
31.612003 6.3502007 -0.7617285 -0.08858563 3.754586 -1.5451658 -3.5680254 3.4113016
0.62323403 -0.06317357 4.7230835 1.2304988 2.054195 -17.318447 5.854731 -6.1113243
-8.154514 -0.59487766 3.2092328 -9.025743 8.243 1.2847562 -0.51358294 -11.160488
1.0142647 -1.5484793 -3.8954244 2.258789 -0.56193036 -5.5578504 6.102836 1.8164989
2.3679044 -12.619922 7.142264 -4.56568 -6.9560885 -3.0133364 4.5429096 -2.4757893
5.386805 1.8820403 -0.40184152 5.1314898 -3.4804008 1.4118457 -1.9013817 -1.653873
2.3125775 0.12708943 -0.087096065 -0.046646476 -0.03409481 1.4756851 -0.41205934 0.88610965
1.2641627 -0.75591636 0.08799258 -0.0924526 -0.5647978 -0.5743465 -0.3812233 -1.4972287
0.26538017 -1.0942335 -0.42795035 0.285177 -0.57121664 0.33575898 0.9922297 0.34298825
0.5427595 0.29483986 -1.2067138 0.8133082 -0.4794059 0.4106007 0.55033356 -0.44910952
-1.980039 -0.11749693 -7.6888556 17.079016 -2.7850437 8.1401205 5.9233246 -0.78217727
3.9348242 5.6128945 6.237701 -2.5747564 -2.4239686 16.540482 2.0969455 10.654316
8.946012 -0.83825105 9.200954 6.8477907 -0.64331937 -1.4656798 0.060942482 -0.09457737
0.11573691 0.11026497 -0.21723688 -0.06773703 -0.30481127 -0.044785865 -0.028188137 -0.11226456
-6.1255183 24.53205 10.963704 10.019496 18.688238 -3.5239768 -4.6368766 16.78119
11.781589 -6.9399405 -0.09775385 0.6008809 0.46288395 -0.5374933 0.9213407 -1.3943706
0.082203746 0.16654935 0.76144785 -0.034798514 15.5070715 -15.598283 5.6977916 -0.472078
11.583075 7.602934 6.2503242 -15.903818 6.994545 13.044816 5.4849124 -20.196846
-8.523693 -9.907113 -2.4331467 -6.16692 -4.004883 -5.069601 -5.3683352 -0.048543043
0.017547978 -1.4397557 -0.014544128 -0.76164293 -0.36172378 0.1714865 -0.23685935 0.39394805
0.33898252 0.38294676 -0.23160489 -10.66344 -7.7436323 -4.2423377 -9.677007 12.0715475
-5.1682153 -1.3161377 7.596781 4.666022 -0.043644752 -1.179658 0.41677764 -0.58064467
0.30483046 0.11889976 -0.5308793 0.15048948 0.31845686 0.3154365 0.76559865 6.0368104
1.8842156 1.2233069 5.957483 -3.5722795 -0.2260745 5.0648155 -4.126382 -0.28955874
0.22353007 0.94881135 -0.9793969 1.2148024 1.0451415 -0.2304409 0.7833405 0.58658344
-0.579216 -0.7179139 0.95599693 -2.193609 3.1172853 -2.6858296 -0.24498852 -0.16801478
-1.0089009 -0.39216012 -0.0022963027 0.7720542 1.2995237 -7.5615225 10.778598 -5.001023
-1.7141222 -2.2028453 -6.8983145 -0.06805348 2.4309466 0.49673605 0.5912423 0.2657809
0.56678635 -0.29176015 -0.7792229 0.4262924 0.13898683 -0.33200994 0.16270357 0.5143166
-1.0346777 -0.7685366 1.9528984 -1.0228531 -2.2340844 1.0507182 -1.3164208 0.42111263
2.6107411 0.10401723
00000000: 7501 c1c1 f0d8 5b41 a66c fd41 28e2 c541
00000010: 4bd9 21bf a854 7042 3819 e3c0 adf1 9741
00000020: 62e5 fc41 d834 cb40 a400 43bf 626c b5bd
00000030: 234b 7040 fec7 c5bf 875a 64c0 c452 5a40
00000040: 448c 1f3f 2561 81bd 8023 9740 fc80 9d3f
00000050: ee77 0340 2e8c 8ac1 f559 bb40 f88f c3c0
00000060: e478 02c1 e749 18bf 1264 4d40 7169 10c1
00000070: 54e3 0341 e472 a43f 2c7a 03bf 5c91 32c1
00000080: 6dd3 813f 9234 c6bf a24e 79c0 0090 1040
00000090: abda 0fbf e9d9 b1c0 6f4a c340 0983 e83f
000000a0: bf8b 1740 33eb 49c1 6d8d e440 0d1a 92c0
000000b0: 4798 dec0 81da 40c0 845f 9140 5573 1ec0
000000c0: b560 ac40 b2e6 f03f 2cbe cdbe 2a35 a440
000000d0: e3be 5ec0 5cb7 b43f 7a60 f3bf 1cb2 d3bf
000000e0: 4501 1440 bb23 023e 6c5f b2bd 6010 3fbd
000000f0: 00a7 0bbd 40e3 bc3f 71f9 d2be 15d8 623f
00000100: 15d0 a13f bc83 41bf 7435 b43d ca57 bdbd
00000110: 9796 10bf 5f08 13bf b32f c3be 31a5 bfbf
00000120: e9df 873e d80f 8cbf 4f1c dbbe b802 923e
00000130: 413b 12bf 9ae8 ab3e c402 7e3f 289c af3e
00000140: 49f2 0a3f 40f5 963e 9975 9abf f734 503f
00000150: b174 f5be 413a d23e a9e2 0c3f aff1 e5be
00000160: eb71 fdbf 3ba2 f0bd 1b0b f6c0 d3a1 8841
00000170: 283e 32c0 ef3d 0241 e08b bd40 c53c 48bf
00000180: 29d4 7b40 d59c b340 3f9b c740 cfc8 24c0
00000190: 4d22 1bc0 e852 8441 5b34 0640 1478 2a41
000001a0: dd22 0f41 9f97 56bf 1c37 1341 1a21 db40
000001b0: 94b0 24bf 659b bbbf d39e 793d c8b1 c1bd
000001c0: 7907 ed3d 9ad2 e13d 5873 5ebe b6b9 8abd
000001d0: 3910 9cbe 6271 37bd cfea e6bc f6ea e5bd
000001e0: 3f04 c4c0 a341 c441 556b 2f41 db4f 2041
000001f0: 8381 9541 d688 61c0 4b61 94c0 e13f 8641
00000200: 6381 3c41 fe13 dec0 2c33 c8bd 55d3 193f
00000210: 20ff ec3e 2999 09bf fcdc 6b3f bc7a b2bf
00000220: 705a a83d ea8b 2a3e 3fee 423f e388 0ebd
00000230: f71c 7841 9192 79c1 4f54 b640 35b4 f1be
00000240: 4654 3941 3c4b f340 a802 c840 0a76 7ec1
00000250: 50d3 df40 91b7 5041 6784 af40 2493 a1c1
00000260: 0c61 08c1 8983 1ec1 adb8 1bc0 6957 c5c0
00000270: 0028 80c0 2c3a a2c0 67c9 abc0 12d5 46bd
00000280: c7c0 8f3c ea49 b8bf 7f4a 6ebc 08fb 42bf
00000290: dc33 b9be 289a 2f3e 428b 72be 8fb3 c93e
000002a0: 1e8f ad3e 9911 c43e d529 6dbe 739d 2ac1
000002b0: d6cb f7c0 3bc1 87c0 05d5 1ac1 0f25 4141
000002c0: 0562 a5c0 3377 a8bf d418 f340 0d50 9540
000002d0: d7c4 32bd 09ff 96bf e163 d53e 21a5 14bf
000002e0: bd12 9c3e b881 f33d b5e7 07bf ea19 1a3e
000002f0: c70c a33e e580 a13e 46fe 433f 8d2d c140
00000300: fa2d f13f 5295 9c3f b3a3 be40 3aa0 64c0
00000310: 1380 67be f812 a240 520b 84c0 0b41 94be
00000320: 11e5 643e 4de5 723f c1b9 7abf a57e 9b3f
00000330: 32c7 853f b3f8 6bbe 0189 483f 552a 163f
00000340: 8047 14bf 35c9 37bf 37bc 743f 1764 0cc0
00000350: 9a81 4740 a2e4 2bc0 45de 7abe 110c 2cbe
00000360: aa23 81bf 36c9 c8be 917d 16bb 58a5 453f
00000370: cb56 a63f fef7 f1c0 2375 2c41 6108 a0c0
00000380: 5b68 dbbf 6bfb 0cc0 febe dcc0 9f5f 8bbd
00000390: a194 1b40 3054 fe3e a85b 173f 6f14 883e
000003a0: e918 113f 9661 95be 277b 47bf ff42 da3e
000003b0: 9052 0e3e 35fd a9be c49b 263e 41aa 033f
000003c0: 5270 84bf d1be 44bf 93f8 f93f daec 82bf
000003d0: 3dfb 0ec0 ef7d 863f 7a80 a8bf 139c d73e
000003e0: 6216 2740 fc06 d53d

model.2.bias f4 [25]
14.473525 3.7329183 3.267156 3.3049283 5.4526005 4.3508415 -1.394182 -1.0228366
-0.7033177 4.7446303 8.064783 -0.28812778 11.191589 0.00047321818 -11.612596 -8.805958
0.6887714 -3.2645178 1.0291146 -3.4781966 1.238449 -2.9722488 -3.7827148 2.961864
-2.5909214
00000000: 8f93 6741 22e8 6e40 1519 5140 f283 5340
00000010: b47b ae40 183a 8b40 8e74 b2bf 4fec 82bf
00000020: a10c 34bf 03d4 9740 5a09 0141 7c85 93be
00000030: c010 3341 451a f839 31cd 39c1 34e5 0cc1
00000040: 5353 303f dced 50c0 07ba 833f c69a 5ec0
00000050: 7f85 9e3f 5339 3ec0 0018 72c0 2e8f 3d40
00000060: a8d1 25c0
